…
Total de classes válidas: 21
Total de imagens: 10500

📊 Dividindo dados em conjuntos de treinamento (80%) e validação (20%)...
Conjunto de treinamento: 8400 imagens
Conjunto de validação: 2100 imagens
💾 Informações de divisão do dataset salvas em 'output\deeper_20250331_103827\reports\dataset_split.json'

🔄 Configurando transformações de imagem e aumentação de dados...

⚙️ Configurando DataLoaders...

🧠 Inicializando modelo CNN para classificar 21 espécies de serpentes...
Usando variante do modelo: deeper - Versão melhorada

Arquitetura do modelo:
SnakeCNNDeeper(
  (features): Sequential(
    (0): Conv2d(3, 16, kernel_size=(3, 3), stride=(1, 1), padding=(1, 1))
    (1): BatchNorm2d(16, eps=1e-05, momentum=0.1, affine=True, track_running_stats=True)
    (2): ReLU(inplace=True)
    (3): MaxPool2d(kernel_size=2, stride=2, padding=0, dilation=1, ceil_mode=False)
    (4): Conv2d(16, 32, kernel_size=(3, 3), stride=(1, 1), padding=(1, 1))
    (5): BatchNorm2d(32, eps=1e-05, momentum=0.1, affine=True, track_running_stats=True)
    (6): ReLU(inplace=True)
    (7): MaxPool2d(kernel_size=2, stride=2, padding=0, dilation=1, ceil_mode=False)
    (8): Conv2d(32, 64, kernel_size=(3, 3), stride=(1, 1), padding=(1, 1))
    (9): BatchNorm2d(64, eps=1e-05, momentum=0.1, affine=True, track_running_stats=True)
    (10): ReLU(inplace=True)
    (11): MaxPool2d(kernel_size=2, stride=2, padding=0, dilation=1, ceil_mode=False)
    (12): Conv2d(64, 128, kernel_size=(3, 3), stride=(1, 1), padding=(1, 1))
    (13): BatchNorm2d(128, eps=1e-05, momentum=0.1, affine=True, track_running_stats=True)
    (14): ReLU(inplace=True)
    (15): MaxPool2d(kernel_size=2, stride=2, padding=0, dilation=1, ceil_mode=False)
  )
  (classifier): Sequential(
    (0): Flatten(start_dim=1, end_dim=-1)
    (1): Linear(in_features=25088, out_features=512, bias=True)
    (2): BatchNorm1d(512, eps=1e-05, momentum=0.1, affine=True, track_running_stats=True)
    (3): ReLU(inplace=True)
    (4): Dropout(p=0.3, inplace=False)
    (5): Linear(in_features=512, out_features=256, bias=True)
    (6): BatchNorm1d(256, eps=1e-05, momentum=0.1, affine=True, track_running_stats=True)
    (7): ReLU(inplace=True)
    (8): Dropout(p=0.3, inplace=False)
    (9): Linear(in_features=256, out_features=21, bias=True)
  )
)
💾 Resumo da arquitetura salvo em 'output\deeper_20250331_103827\models\model_architecture_deeper.txt'

🚀 Iniciando treinamento do modelo...
Épocas: 300, Batch Size: 64, Learning Rate: 0.001, Weight Decay: 0.0001

🚀 Iniciando treinamento: 20250331_105707
📊 Monitorando progresso... Paciência para early stopping: 10 épocas
⚙️ Configuração: 300 épocas, LR inicial: 0.001, Weight decay: 0.0001
…
